dimensione immagini: 5x5
TOT FILES: 74
TRAIN FILES: 60
VALIDATION FILES: 11
TEST FILES: 11
EPOCHS: 2

PRECISIONE VALIDATION SET: 0.8007407407407408
PRECISIONE TEST SET: 0.8311111111111111
PRECISIONE TRAIN SET: 0.9199814814814815

Model: "sequential"
_________________________________________________________________
Layer (type)                 Output Shape              Param #   
=================================================================
conv2d (Conv2D)              (None, 269, 277, 32)      1184      
_________________________________________________________________
max_pooling2d (MaxPooling2D) (None, 135, 139, 32)      0         
_________________________________________________________________
batch_normalization (BatchNo (None, 135, 139, 32)      128       
_________________________________________________________________
conv2d_1 (Conv2D)            (None, 133, 137, 32)      9248      
_________________________________________________________________
max_pooling2d_1 (MaxPooling2 (None, 67, 69, 32)        0         
_________________________________________________________________
batch_normalization_1 (Batch (None, 67, 69, 32)        128       
_________________________________________________________________
conv2d_2 (Conv2D)            (None, 65, 67, 32)        9248      
_________________________________________________________________
max_pooling2d_2 (MaxPooling2 (None, 33, 34, 32)        0         
_________________________________________________________________
batch_normalization_2 (Batch (None, 33, 34, 32)        128       
_________________________________________________________________
conv2d_3 (Conv2D)            (None, 32, 33, 32)        4128      
_________________________________________________________________
max_pooling2d_3 (MaxPooling2 (None, 16, 17, 32)        0         
_________________________________________________________________
batch_normalization_3 (Batch (None, 16, 17, 32)        128       
_________________________________________________________________
flatten (Flatten)            (None, 8704)              0         
_________________________________________________________________
dense (Dense)                (None, 64)                557120    
_________________________________________________________________
dropout (Dropout)            (None, 64)                0         
_________________________________________________________________
dense_1 (Dense)              (None, 9)                 585       
=================================================================
Total params: 582,025
Trainable params: 581,769
Non-trainable params: 256
_________________________________________________________________



//////////////////////////////////////////////////////////////////////////////////////////////////////////////////////////////////////////////////////////



dimensione immagini: 5x5
TOT FILES: 74
TRAIN FILES: 60
VALIDATION FILES: 11
TEST FILES: 11
EPOCHS: 4

PRECISIONE VALIDATION SET: 0.8018518518518518
PRECISIONE TEST SET: 0.8085858585858586
PRECISIONE TRAIN SET: 0.9653148148148148

Model: "sequential"
_________________________________________________________________
Layer (type)                 Output Shape              Param #   
=================================================================
conv2d (Conv2D)              (None, 269, 277, 32)      1184      
_________________________________________________________________
max_pooling2d (MaxPooling2D) (None, 135, 139, 32)      0         
_________________________________________________________________
batch_normalization (BatchNo (None, 135, 139, 32)      128       
_________________________________________________________________
conv2d_1 (Conv2D)            (None, 133, 137, 32)      9248      
_________________________________________________________________
max_pooling2d_1 (MaxPooling2 (None, 67, 69, 32)        0         
_________________________________________________________________
batch_normalization_1 (Batch (None, 67, 69, 32)        128       
_________________________________________________________________
conv2d_2 (Conv2D)            (None, 66, 68, 32)        4128      
_________________________________________________________________
max_pooling2d_2 (MaxPooling2 (None, 33, 34, 32)        0         
_________________________________________________________________
batch_normalization_2 (Batch (None, 33, 34, 32)        128       
_________________________________________________________________
flatten (Flatten)            (None, 35904)             0         
_________________________________________________________________
dense (Dense)                (None, 64)                2297920   
_________________________________________________________________
dropout (Dropout)            (None, 64)                0         
_________________________________________________________________
dense_1 (Dense)              (None, 9)                 585       
=================================================================
Total params: 2,313,449
Trainable params: 2,313,257
Non-trainable params: 192
_________________________________________________________________



//////////////////////////////////////////////////////////////////////////////////////////////////////////////////////////////////////////////////////////



dimensione immagini: 5x5
TOT FILES: 74
TRAIN FILES: 60
VALIDATION FILES: 11
TEST FILES: 11
EPOCHS: 4

PRECISIONE VALIDATION SET: 0.8118518518518518
PRECISIONE TEST SET: 0.8264646464646465
PRECISIONE TRAIN SET: 0.9288703703703703

Model: "sequential"
_________________________________________________________________
Layer (type)                 Output Shape              Param #   
=================================================================
conv2d (Conv2D)              (None, 269, 277, 32)      1184      
_________________________________________________________________
max_pooling2d (MaxPooling2D) (None, 68, 70, 32)        0         
_________________________________________________________________
batch_normalization (BatchNo (None, 68, 70, 32)        128       
_________________________________________________________________
conv2d_1 (Conv2D)            (None, 66, 68, 32)        9248      
_________________________________________________________________
max_pooling2d_1 (MaxPooling2 (None, 22, 23, 32)        0         
_________________________________________________________________
batch_normalization_1 (Batch (None, 22, 23, 32)        128       
_________________________________________________________________
conv2d_2 (Conv2D)            (None, 21, 22, 32)        4128      
_________________________________________________________________
max_pooling2d_2 (MaxPooling2 (None, 11, 11, 32)        0         
_________________________________________________________________
batch_normalization_2 (Batch (None, 11, 11, 32)        128       
_________________________________________________________________
flatten (Flatten)            (None, 3872)              0         
_________________________________________________________________
dense (Dense)                (None, 64)                247872    
_________________________________________________________________
dropout (Dropout)            (None, 64)                0         
_________________________________________________________________
dense_1 (Dense)              (None, 9)                 585       
=================================================================
Total params: 263,401
Trainable params: 263,209
Non-trainable params: 192
_________________________________________________________________



//////////////////////////////////////////////////////////////////////////////////////////////////////////////////////////////////////////////////////////



dimensione immagini: 5x5
TOT FILES: 74
TRAIN FILES: 60
VALIDATION FILES: 11
TEST FILES: 11
EPOCHS: 4

PRECISIONE VALIDATION SET: 0.7907407407407407
PRECISIONE TEST SET: 0.8354545454545454
PRECISIONE TRAIN SET: 0.8888703703703704

Model: "sequential"
_________________________________________________________________
Layer (type)                 Output Shape              Param #   
=================================================================
conv2d (Conv2D)              (None, 269, 277, 32)      1184      
_________________________________________________________________
max_pooling2d (MaxPooling2D) (None, 45, 47, 32)        0         
_________________________________________________________________
batch_normalization (BatchNo (None, 45, 47, 32)        128       
_________________________________________________________________
conv2d_1 (Conv2D)            (None, 43, 45, 32)        9248      
_________________________________________________________________
max_pooling2d_1 (MaxPooling2 (None, 15, 15, 32)        0         
_________________________________________________________________
batch_normalization_1 (Batch (None, 15, 15, 32)        128       
_________________________________________________________________
conv2d_2 (Conv2D)            (None, 14, 14, 32)        4128      
_________________________________________________________________
max_pooling2d_2 (MaxPooling2 (None, 7, 7, 32)          0         
_________________________________________________________________
batch_normalization_2 (Batch (None, 7, 7, 32)          128       
_________________________________________________________________
flatten (Flatten)            (None, 1568)              0         
_________________________________________________________________
dense (Dense)                (None, 64)                100416    
_________________________________________________________________
dropout (Dropout)            (None, 64)                0         
_________________________________________________________________
dense_1 (Dense)              (None, 9)                 585       
=================================================================
Total params: 115,945
Trainable params: 115,753
Non-trainable params: 192
_________________________________________________________________



//////////////////////////////////////////////////////////////////////////////////////////////////////////////////////////////////////////////////////////



dimensione immagini: 5x5
TOT FILES: 74
TRAIN FILES: 60
VALIDATION FILES: 11
TEST FILES: 11
EPOCHS: 4

PRECISIONE VALIDATION SET: 0.7407407407407407
PRECISIONE TEST SET: 0.7650505050505051
PRECISIONE TRAIN SET: 0.8117037037037037

Model: "sequential"
_________________________________________________________________
Layer (type)                 Output Shape              Param #   
=================================================================
conv2d (Conv2D)              (None, 269, 277, 32)      1184      
_________________________________________________________________
max_pooling2d (MaxPooling2D) (None, 45, 47, 32)        0         
_________________________________________________________________
batch_normalization (BatchNo (None, 45, 47, 32)        128       
_________________________________________________________________
conv2d_1 (Conv2D)            (None, 43, 45, 32)        9248      
_________________________________________________________________
max_pooling2d_1 (MaxPooling2 (None, 15, 15, 32)        0         
_________________________________________________________________
batch_normalization_1 (Batch (None, 15, 15, 32)        128       
_________________________________________________________________
conv2d_2 (Conv2D)            (None, 14, 14, 32)        4128      
_________________________________________________________________
max_pooling2d_2 (MaxPooling2 (None, 7, 7, 32)          0         
_________________________________________________________________
batch_normalization_2 (Batch (None, 7, 7, 32)          128       
_________________________________________________________________
flatten (Flatten)            (None, 1568)              0         
_________________________________________________________________
dense (Dense)                (None, 64)                100416    
_________________________________________________________________
dropout (Dropout)            (None, 64)                0         
_________________________________________________________________
dense_1 (Dense)              (None, 9)                 585       
=================================================================
Total params: 115,945
Trainable params: 115,753
Non-trainable params: 192
_________________________________________________________________



//////////////////////////////////////////////////////////////////////////////////////////////////////////////////////////////////////////////////////////



